courses/machine-learning/python/project-2/part2-mnist/mnist_model_fully_connected.pt (torch_old, 415369 bytes, 4 tensors)

weight f4 [128, 784]
000000 72 dd f1 3c 30 23 d8 bb 85 59 0f bd 3c 59 28 3c
       0.029524539 -0.0065959916 -0.03499748 0.010275181
000010 4d 72 07 3d fe 56 fe 3c e0 16 10 bd d9 ab 03 3d
       0.03306799 0.03104734 -0.035178065 0.03214631
000020 b8 95 31 3c ff b2 06 bd 7f 70 0c 3d 50 a6 01 3b
       0.010838918 -0.032885548 0.034286972 0.0019782968
000030 5d 55 a0 3b 52 55 61 3c ad 8b 2f 3c ef da ae bc
       0.0048929886 0.013753252 0.010714454 -0.02134463
000040 80 86 a7 3c 78 f4 ce 3c 4e d1 96 bc 24 61 8d 3c
       0.020449877 0.025263056 -0.018410351 0.017258234
000050 b0 17 d0 bb 9e bc bd bc ae f5 60 bc c0 00 89 bb
       -0.00635048 -0.023161229 -0.01373045 -0.0041809976
000060 45 f0 a0 bc 2e 75 a4 3c de 4d ac 3c aa a7 8a bc
       -0.01964582 0.020075407 0.021033224 -0.016925652
000070 f0 9e b5 bc 00 a0 d5 36 e0 19 00 3c d0 42 af 3c
       -0.022170514 6.366521e-06 0.007818669 0.021394163
000080 a8 6c 99 bb 13 68 bb bc 08 22 ae b8 c0 08 de 3c
       -0.0046821423 -0.022876775 -8.3033054e-05 0.027103782
000090 4e c7 67 3c 9a 97 f8 3c 3b 70 3b 3b a3 93 c2 bc
       0.014146639 0.030345727 0.002860083 -0.02375204
0000a0 6c 54 d8 bb e4 59 04 bd 15 d1 00 3d e8 f2 22 ba
       -0.0066018607 -0.03231229 0.031449396 -0.00062160054
0000b0 df 14 65 3c 42 3b dd 3b 7a dc 98 bc 06 99 38 3b
       0.013982027 0.006751449 -0.018659819 0.002816738
0000c0 46 fd 24 3c 1a c6 0e bd 4c 22 c8 bc a9 fb 0e 3d
       0.010070151 -0.034856893 -0.024430417 0.03490797
0000d0 24 b1 91 3c 50 d0 8d 3c e0 23 6c bc 88 ab 09 bd
       0.017784663 0.017311245 -0.01441285 -0.03361085
0000e0 78 17 6e bc aa 64 b5 bc ae c8 5f bc 38 25 10 3d
       -0.014531963 -0.022142727 -0.013658686 0.035191745
0000f0 b5 d3 da 3c 87 9e ca 3c 43 8e f3 bc 96 6b 5e 3c
       0.026712278 0.024733795 -0.029730922 0.013575455
000100 6c 80 ab bc 71 7e 01 bc ba 1b c5 3c 7b 3c e1 bb
       -0.02093526 -0.007903681 0.024061073 -0.006873665
000110 5a f7 02 3d 9b d5 51 3c d2 c2 83 bc 97 5a 5c bc
       0.031974174 0.012807275 -0.016084109 -0.013449333
000120 b9 d1 43 3c be 71 78 bc 48 92 2a bd ff 4d 79 3b
       0.011951857 -0.015163837 -0.04164341 0.0038040874
000130 cc 6c 50 3c 5c ce 84 3c b5 68 bc ba 56 c1 b8 3b
       0.012721252 0.016211681 -0.0014374467 0.005638282
000140 66 da 19 3c 1d 3b c7 bc e8 9b f9 3b b2 c9 1b bc
       0.009390449 -0.02432018 0.0076174624 -0.009508537
000150 48 1f a5 3b a0 4a 13 3c ac 84 f4 bc 63 7a 05 3d
       0.0050391294 0.00898996 -0.02984842 0.03258742
000160 0e ce 00 3d b3 60 01 bd 20 bb 11 bc 11 89 6a 3c
       0.03144651 -0.03158636 -0.008894712 0.014314906
000170 7c d2 32 bc 22 d0 a5 bb 97 48 2b bd 02 f7 02 3c
       -0.010914441 -0.0050602118 -0.041817274 0.007993462
000180 72 b6 80 bd 5c 6c 16 bc 64 76 80 bd 20 b5 3e bd
       -0.06284799 -0.009181108 -0.06272581 -0.046559453
000190 90 29 cc bd 77 e8 b0 bd 5e 09 c4 bd 31 d1 2d bc
       -0.09968865 -0.08638089 -0.09572099 -0.010608957
0001a0 46 a5 81 bd a5 8a 3c bd 07 38 25 b8 cc 32 04 bc
       -0.063303515 -0.04603066 -3.9391245e-05 -0.008068752
0001b0 15 0d 89 bb 5a 4a 9f bc fb 84 98 bc 53 77 dd bc
       -0.0041824677 -0.019444633 -0.018618098 -0.027034437
0001c0 86 0e 12 bd 52 b4 c4 bc 6f 49 9c 3c ff 85 e3 3b
       -0.035658382 -0.024011765 0.019077985 0.006943464
0001d0 a4 fb ab bc be f2 d0 3c 1f e3 cf ba ea 7b 0d bd
       -0.020994015 0.025506373 -0.0015860534 -0.034542
0001e0 56 30 39 bd bc 64 ac bc c5 cf 89 bd ea fb 97 bd
       -0.045212112 -0.021044128 -0.06729082 -0.07421096
0001f0 57 de f5 bd 4f 64 30 bd 4a 6c a8 bd 76 59 af bd
       -0.120052986 -0.04306441 -0.082237795 -0.08561985
000200 bb e0 0f bd df d4 be 3b f3 e1 94 3c 16 3c ee 3b
       -0.03512643 0.005823716 0.018174147 0.0072703464
000210 4c af 97 bc ad a9 c9 bc ea bb 0b bd 71 e5 26 bd
       -0.018516205 -0.02461704 -0.034114756 -0.040746156
000220 de ae c9 bc 65 4f 9c bc ae 27 08 ba a7 8a 02 3d
       -0.024619516 -0.019080827 -0.0005193901 0.03187051
000230 90 d5 22 3c 41 18 f0 bc a0 fd 59 3c 2c 80 a9 bb
       0.009938613 -0.02930844 0.013305098 -0.00517275
000240 62 15 d1 bc c5 66 93 3c 70 15 cc bc 1d 04 51 bd
       -0.025522891 0.01799334 -0.024912566 -0.051029313
000250 e6 1b 79 3d a3 79 0d 3d 56 d0 b2 bd c7 4c 0f bd
       0.06081762 0.03453983 -0.08731143 -0.03498533
000260 6e 1a ff bc f7 db cc bc 2c 44 63 3c d4 d0 cf 3c
       -0.031140532 -0.025007231 0.013871234 0.025368132
000270 c2 ab 58 3d 15 54 87 3b 6c 90 ba bc fd 3b 00 bc
       0.052898176 0.0041298964 -0.022773944 -0.007826802
000280 d3 f0 89 bc fc 5c 14 bd c3 71 51 3d d7 67 9c bb
       -0.016838467 -0.03622149 0.051133882 -0.004773121
000290 3d 5f af 3c d7 f0 91 bc f3 d9 09 3d d9 93 bd bc
       0.021407718 -0.017815037 0.03365512 -0.023141788
0002a0 60 0b 0f bd f3 f4 ba bc 4d 99 b1 3c 6e 1a a1 3c
       -0.034922957 -0.022821879 0.021679545 0.019665923
0002b0 33 8b 74 3c 90 63 85 3c ed 68 cf bc 02 0d 61 bc
       0.014925766 0.016282827 -0.025318587 -0.013736011
0002c0 cc 57 dd 3a 71 9b 5c bc 14 f4 7a bc c3 3f 3d 3d
       0.0016887127 -0.0134647945 -0.015316982 0.046203386
0002d0 84 c6 c4 3d 7b 94 17 3d c4 da c3 bc 62 ae 0c bd
       0.09608176 0.037006836 -0.023908027 -0.034345992
0002e0 b1 18 4a bd ea a4 75 3d d4 57 a2 3b be 4f 87 3c
       -0.049339954 0.059971727 0.0049543176 0.016517516
0002f0 c9 6a e2 bc 3b 71 af 3d d3 92 30 3d de 8c b4 3b
       -0.02763881 0.08566519 0.043108772 0.0055099567
000300 50 07 df 3c 3a 6a 67 bc 06 b4 68 bb 5b 62 aa bb
       0.027225167 -0.0141244475 -0.0035507693 -0.005199713
000310 5e 6e 96 3b f7 32 89 bc 7b 26 02 3c 7d 99 b1 3c
       0.0045907935 -0.016747935 0.007943745 0.021679634
000320 19 10 c4 3c ed bd 52 3c c8 4b 6b 3c b9 c7 0c bc
       0.023933457 0.012862665 0.014361329 -0.0085925395
000330 b1 54 81 3c 4a db 7b 3c c9 b4 24 bd 87 c0 ca bd
       0.015787454 0.015372107 -0.040211473 -0.09900003
000340 c1 30 92 3b 10 c8 df bb de ff 8e bd e8 40 8d bd
       0.0044613783 -0.006829269 -0.069823965 -0.068971455
000350 a7 69 1b 3b b4 eb ac bb 2f 19 ff 3d e0 ca be 3d
       0.0023714097 -0.0052771214 0.12455975 0.09316039
000360 3b 2c 95 3d c0 7a 17 3e d0 2c 00 3e d0 32 6d 3d
       0.07283827 0.14792919 0.12517095 0.057909787
000370 2f 5a 05 bd b6 02 77 3c ec 61 ec bc ff 81 7d bc
       -0.03255671 0.01507633 -0.028855287 -0.015472888
000380 fc 0f 6f bc 75 55 28 bc 3e e1 d7 3c d0 d2 a5 3c
       -0.014591213 -0.010274281 0.026352521 0.020242125
000390 2b 61 e5 3d 72 db c2 3d e6 73 5d 3d 34 d0 d7 3d
       0.11200174 0.09514512 0.054065607 0.105377585
0003a0 44 31 b2 3d de 90 26 3d 2d 13 19 3c 45 52 0c bc
       0.08700803 0.0406655 0.009342951 -0.008564536
0003b0 89 c8 bd 3c cf 52 8c 3d 22 05 d7 3c e0 d8 fa 3a
       0.023166912 0.06851732 0.026247565 0.001913812
0003c0 f4 1c b1 bb 74 4e 09 3d eb dd 4c 3d 00 a7 fb 3d
       -0.005405063 0.033522084 0.050016325 0.12287712
0003d0 d0 5f fc 3d 6b 9a cd 3c 19 c3 ba 3d 8d b1 c7 3d
       0.12322962 0.025098046 0.09119243 0.09750662
0003e0 2e 3e 05 bd 6b 43 27 bd 70 5c de 3b a5 bd 9e bc
       -0.032530002 -0.04083578 0.0067859218 -0.019377539
0003f0 8b a3 29 bc 61 9f 44 bc 04 d3 8f 3c 1f 6a bd 3c
       -0.010353933 -0.0120008895 0.017556675 0.023121892

bias f4 [128]
000000 81 31 d6 bd 94 10 a6 bc 1b c8 4a 3d 98 04 25 3c
       -0.10458661 -0.020271577 0.04950724 0.010071896
000010 e1 0f 89 3d de f9 3c bc b9 49 fe ba a0 b3 e3 bd
       0.06692482 -0.011534182 -0.0019400633 -0.11118245
000020 9b 98 ed 3d 05 3f 16 3d 55 2a f3 bd 03 97 84 3d
       0.11601373 0.036681194 -0.118733086 0.06474116
000030 95 60 67 3d 6d 43 a9 3d 45 f1 23 bb 8a f9 f8 3d
       0.056488592 0.082648136 -0.0025015634 0.12156971
000040 f9 ae ab 3d 5d b0 a2 3d d9 de 54 bc 00 8a 8d 3d
       0.08382983 0.07943795 -0.012992584 0.06911087
000050 cb eb b8 bc 9c 89 0c be 77 6f 9c bd b3 1a d8 3d
       -0.022573372 -0.13724369 -0.07638448 0.105519675
000060 7b b7 6d 3d 50 8b ec bc ef 81 2a 3d c8 0b f9 bc
       0.05803631 -0.028875023 0.04162782 -0.030401126
000070 72 e8 11 be 23 05 89 bd 18 09 be 3d 68 df 1d be
       -0.14248827 -0.06690433 0.09279078 -0.15417254
000080 ca fb 08 3e fb 04 2d 3e 7f 7a 00 3d 28 72 02 3e
       0.133773 0.16896431 0.03136682 0.1273886
000090 46 83 3d 3c 98 23 7e 3d 23 f5 90 3c c0 4a f0 bc
       0.011566943 0.062045664 0.017695015 -0.029332519
0000a0 af e0 71 bd f9 d3 f7 3c ab 2d e5 bc 32 8f b0 bd
       -0.059052166 0.030252444 -0.027975878 -0.08621062
0000b0 eb 32 68 bc 5b ac f0 3c 60 5d 6f bd 3d 2a 6a bc
       -0.014172296 0.02937906 -0.05843866 -0.014292297
0000c0 b4 26 84 3d 17 7f 11 bc a9 82 a7 3e f2 cd 5d 3e
       0.064526945 -0.008880398 0.32716873 0.21660593
0000d0 4e ef 17 bd 11 20 5c bd e5 6d 9a 3c f0 fa 51 3d
       -0.037093453 -0.05374152 0.01885123 0.051264703
0000e0 66 64 f8 bb 2c 19 5f 3c b5 9b ce 3d 4e d3 15 3a
       -0.007580328 0.013616841 0.100882925 0.0005715386
0000f0 b3 1f b6 bd ea 6e bc bd 38 b1 33 3d 46 f2 e9 3c
       -0.08892765 -0.09200843 0.04387018 0.028557908
000100 cb f6 1d 3e f8 3f d0 3d c1 55 ee 3d b5 ff 70 3e
       0.15426175 0.10168451 0.1163745 0.23535044
000110 c5 3b ab 3d d0 f0 66 3d 58 8d 45 3e 84 86 12 be
       0.083610095 0.056382 0.192922 -0.14309126
000120 27 94 25 3e a9 75 2f 3e 27 91 10 3e c7 9d c5 3c
       0.16169797 0.17134728 0.14117871 0.024123086
000130 88 6b ae 3d 3f 3f d9 3d bd 19 6a 3d 6d fd a3 3d
       0.08516604 0.10607766 0.057153452 0.080073215
000140 f0 ee 53 3d 01 97 5d 3e 5c 67 db 3d eb 10 33 3d
       0.05174154 0.21639635 0.107130736 0.043717306
000150 a1 f3 2b 3d 70 5e 38 bd 54 17 0d 3e af 76 f9 3c
       0.04198039 -0.045011938 0.1377843 0.0304521
000160 d0 74 30 3d 7a c5 16 bd 03 2f 8e 3c 82 f5 a7 3d
       0.04308015 -0.036809422 0.017356401 0.08201124
000170 14 d9 81 bd 96 47 80 bd b3 b6 ac 3c 25 16 ef 3d
       -0.063402325 -0.06263654 0.021083212 0.116741456
000180 55 f9 b8 3a ab 8d 91 bd 29 ef d5 3c 66 3a 3c be
       0.0014112393 -0.07107099 0.026115017 -0.18381652
000190 b4 f5 81 3d 4c 1e 7c 3d 62 dd fa 3d d4 f5 8a bb
       0.06345692 0.06155233 0.12249257 -0.004240731
0001a0 32 2c ee 3d e8 36 2b bd dc 4d 6e 3d dc 7d cf bc
       0.11629523 -0.04180041 0.05817972 -0.02532857
0001b0 c5 82 0a 3d 44 cb 93 3b 17 d7 27 3e a8 b8 be bd
       0.033816118 0.004510315 0.16390644 -0.09312564
0001c0 13 c7 21 3e 6d ba 35 bd 29 eb ab 3c e8 8c 36 3c
       0.15798597 -0.044367243 0.020986157 0.011141993
0001d0 ba 3d 5b bd 0c a9 04 3e 15 5e 8c 3e 50 13 c8 3d
       -0.053525664 0.12955111 0.2741553 0.097693086
0001e0 a8 28 38 bc 12 78 14 3d 55 19 27 3e e6 63 4b bd
       -0.011240162 0.03624732 0.16318257 -0.049655817
0001f0 68 36 70 3d 26 d6 92 3d 0c 4b 28 3d 90 77 53 3d
       0.058645636 0.07169752 0.041087195 0.051627696

weight f4 [10, 128]
000000 95 01 0e bf 1a 7b 86 bd 1a b0 b0 3e eb ff b5 3d
       -0.55471164 -0.065664485 0.34509355 0.08886703
000010 78 28 0c 3f 84 80 31 3c bf 14 26 be aa c0 a8 3e
       0.5474925 0.010833863 -0.16218852 0.3295949
000020 a7 a1 ac bd 89 0b 0f be 2d 13 ca be f8 e7 00 bf
       -0.0842927 -0.13969244 -0.39467755 -0.50353956
000030 f5 f6 00 3f cb a9 8a 3c 53 2e a9 3d fc fc 6d be
       0.50376827 0.016926667 0.08260789 -0.23241037
000040 fd 20 aa bd 0c 5b 82 be 68 53 a3 bd 61 ec fb bd
       -0.08307073 -0.25460088 -0.07974893 -0.12300945
000050 e8 55 74 3e 1b 9e 67 3e bf e7 31 be c8 c6 09 3e
       0.23860896 0.22618906 -0.1737356 0.13454735
000060 b1 9e d1 be ff d3 d5 be e6 34 42 3d 28 fd 35 3c
       -0.40941384 -0.41763303 0.04741373 0.01110772
000070 fd d5 1e bf a8 64 0c 3e 2f ca 14 3f 12 ec d3 3e
       -0.6204527 0.13710272 0.5812101 0.41391045
000080 25 97 f9 3e 65 95 d8 3c 52 b7 96 3e 94 0d c0 be
       0.48748127 0.026438424 0.29436737 -0.3751036
000090 52 17 6c 3e b3 27 85 3e b9 04 dd 3d bb 61 30 bd
       0.23055771 0.2600685 0.107919164 -0.043061953
0000a0 0e 1d e1 3c ac 38 c7 bd 55 47 dc be 14 a6 88 be
       0.027479675 -0.09727606 -0.43023172 -0.26689208
0000b0 3f 15 0e bf d9 15 e8 3d 00 ba 2f 3e 96 10 99 3e
       -0.5550117 0.11332292 0.17160797 0.29895467
0000c0 4f 11 55 bd 96 bf d3 3e 12 d8 f8 bd 3b 9c 5e be
       -0.05201846 0.41357106 -0.12150587 -0.21739285
0000d0 c6 d8 e7 3e 36 63 c7 3e 67 ba b4 3e 22 c3 39 3e
       0.45282573 0.3894288 0.35298464 0.18140844
0000e0 d0 ac 08 3e 59 94 6b 3d 6a 08 af be 35 40 40 bd
       0.13347173 0.057514522 -0.34186107 -0.046936233
0000f0 8c 90 88 3e df 9a a9 be db 0c b9 3c 6d 84 f3 3d
       0.2667278 -0.3312597 0.022589138 0.118904926
000100 f7 b8 5b 3d d8 f0 56 3e 78 2c 41 3e 26 21 e7 be
       0.053643193 0.20990312 0.1886462 -0.45142478
000110 d3 48 70 3e 9f 27 70 be b7 72 aa 3d 3b d7 0f be
       0.2346528 -0.23452614 0.08322661 -0.14046948
000120 79 7f 88 be 1e 45 24 3f 16 d1 e5 bc 6f f2 45 be
       -0.26659754 0.64167964 -0.028053802 -0.19330762
000130 9b 04 94 3e 49 19 ed 3c f6 be 79 be ae 08 05 bf
       0.28909764 0.028942721 -0.24389252 -0.5196637
000140 42 d6 3c bf 9c 8a 0d 3f bd 6a df be d0 22 af be
       -0.7376443 0.55289626 -0.43636122 -0.34206247
000150 4e 41 ea bd 85 89 02 be 4d c8 ad 3e 00 47 9e bd
       -0.11438237 -0.12747772 0.3394188 -0.07728386
000160 67 10 58 be 8e 83 d5 3e 60 c5 8b 3e fb 8b bf 3e
       -0.21100007 0.4170193 0.27299023 0.37411484
000170 8d 44 bf 3e de 16 83 be f0 b8 6b bd fe 32 8f be
       0.37356988 -0.25603384 -0.057549417 -0.2796859
000180 e3 b4 e2 3d a5 8b e1 bd a1 38 99 3d 5e 0e 28 3e
       0.11069658 -0.11012963 0.07481504 0.1641173
000190 92 b5 8d bd e0 2e 98 be c4 a4 ab 3d 7b 5c 3a 3b
       -0.069193974 -0.29723263 0.08381036 0.002843647
0001a0 19 3e b5 be cd df 3f be c9 16 5d bd 62 eb ef be
       -0.3539894 -0.18737717 -0.053976808 -0.4685927
0001b0 d6 dd cf be 17 7e 0e bf 9d fc b3 be 99 d1 48 bd
       -0.40598935 -0.5566115 -0.35153666 -0.049028013
0001c0 73 52 a1 be d8 ca a3 3d 71 be bd be 2d ee 0b bd
       -0.31508216 0.07997674 -0.37059358 -0.03416269
0001d0 78 6d 9d be 89 79 6b be 8a 44 10 bd 98 bc ab be
       -0.3074758 -0.2299558 -0.035221614 -0.33542323
0001e0 06 bd 2a bd a0 6d a5 3b e4 8d f1 be 26 48 95 3d
       -0.041684173 0.0050484687 -0.47178566 0.07289152
0001f0 2f 5d 55 be 34 59 63 be 00 ed 7e 3e 67 9d f7 bc
       -0.20836328 -0.22201997 0.24895096 -0.030226422
000200 d0 a5 c6 3e 8b 92 d1 be b5 51 97 3e 83 f3 b7 be
       0.3879838 -0.40932116 0.29554525 -0.35927972
000210 fa 84 8d be 2a c9 07 3f c2 19 91 3d e8 dc 52 be
       -0.27640516 0.53041327 0.07084991 -0.20592082
000220 75 83 86 3d c0 e1 c2 be 26 ce 87 3e 38 b2 cf 3e
       0.06568042 -0.3806286 0.26524466 0.40565658
000230 66 3d d9 be 19 b0 15 be 44 e5 23 3e 75 50 98 be
       -0.42429656 -0.14617957 0.16005427 -0.29748884
000240 bf 22 d0 3e 8d 74 9c be b2 cd ed 3c 42 ac 14 3e
       0.4065151 -0.3055767 0.029028747 0.14518836
000250 f8 59 80 be 3f 4e 6a 3e 68 55 5d 3e 0c 06 bc bc
       -0.2506864 0.22881411 0.21614611 -0.022952102
000260 10 8b 81 3e 2e 32 80 be 30 ee d8 bd 11 89 e6 3e
       0.2530141 -0.25038284 -0.10592306 0.45026448
000270 3f 19 98 3e 79 da 60 bd 36 82 ef be 81 b5 5b bd
       0.2970676 -0.05489585 -0.4677903 -0.053639892
000280 4f 2b a0 be 77 4d 73 3f 1e 7c 1f bf 7d 8a 85 3e
       -0.31283042 0.95040077 -0.6229876 0.2608222
000290 18 16 c1 be 15 03 7b be 70 1b f9 be 0e 0d 4c be
       -0.3771217 -0.24512894 -0.48653746 -0.19926855
0002a0 00 fe c8 3d 44 d3 4e 3f 13 b3 d1 3c e2 89 5b 3e
       0.09814072 0.80791116 0.025598085 0.21439317
0002b0 02 f0 fd 3e 88 d2 59 bd 7c 62 80 be 64 d8 2c be
       0.49597174 -0.053179294 -0.25075138 -0.16879421
0002c0 96 c3 9d 3e d2 fb c3 3b 4e 54 12 3f b8 1c 6a be
       0.30813283 0.005980947 0.5715989 -0.22862518
0002d0 5e e7 93 be ee 6b 8f 3e 1f 1b b5 3d f8 89 45 3e
       -0.28887457 0.2801203 0.088430636 0.19290912
0002e0 65 12 ad bc e8 b8 77 bc 90 67 d3 be 7a f7 39 3d
       -0.021126935 -0.015119769 -0.4128995 0.045402028
0002f0 dd c0 63 be 26 87 50 bd 35 ca 99 3d df 70 8f bc
       -0.2224154 -0.050910138 0.07509271 -0.017509876
000300 6d ca a5 3e 65 d6 a3 be 15 37 91 3c 18 21 07 bf
       0.32381 -0.31999508 0.01772646 -0.5278487
000310 89 b6 b8 be b3 56 8a 3e 8c dd 0d be bc 3b 76 be
       -0.36076763 0.2701927 -0.13854045 -0.24046224
000320 3e f5 7f be 88 a0 98 be 74 57 42 be 23 1b 72 3e
       -0.24995896 -0.29809976 -0.18978673 0.23643164
000330 ff 89 91 bd 1a e3 16 be fa e5 d8 3a 9b 6a a7 be
       -0.07106399 -0.1473507 0.001654803 -0.3269852
000340 8f 51 14 3f ed 22 63 3e 6b 87 c9 3d 94 7a 83 3e
       0.5793695 0.22181292 0.09840282 0.25679457
000350 ff 88 75 bd bc 7d 79 bd b2 d8 dc bd 05 83 7c 3e
       -0.059945103 -0.060910925 -0.10783519 0.24659355
000360 31 c6 38 3f 4a cd ec be 2e c2 40 be 6c 51 14 be
       0.72177416 -0.46250373 -0.18824074 -0.14484185
000370 60 c0 88 3e 8e d8 a4 3e c5 56 62 bd 23 4e 5f 3e
       0.2670927 0.32196468 -0.05525853 0.2180715
000380 b7 40 dd be 5d f0 df bc e1 43 9f bd 72 dc 15 bf
       -0.43213436 -0.027336294 -0.07776619 -0.585395
000390 02 7b c8 3d b3 88 05 3e 35 70 39 bd 7e 66 4d 3e
       0.09789087 0.13040428 -0.045273025 0.20058629
0003a0 f6 7d 64 3e 03 78 f3 3e 7d 9b 3f be 26 ec 33 3f
       0.22313675 0.475525 -0.18711658 0.7028221
0003b0 0a 38 d2 be c3 3e 44 be 8f 80 74 3d 4c 97 1e be
       -0.4105838 -0.19164567 0.059692916 -0.15487403
0003c0 49 03 eb bd fa f0 90 be c8 f4 5c bc 7b 8a 13 bd
       -0.11475236 -0.2830885 -0.013486095 -0.036020737
0003d0 05 cf 71 bc da 74 07 bf 30 34 71 bd 64 2d d9 3e
       -0.01475883 -0.52912676 -0.05888766 0.42417443
0003e0 66 5c dd bd 11 d8 d5 be 53 29 f5 3e b4 cd 9d 3c
       -0.10808639 -0.41766408 0.4788309 0.019263126
0003f0 10 b4 02 bd a5 24 dc bd 7b c1 9c be 8a 3b 15 3d
       -0.031910002 -0.10749177 -0.30616364 0.036433734

bias f4 [10]
000000 92 13 95 be f4 74 6b 3e 7f 16 bf bd 63 68 26 be
       -0.29116493 0.22993833 -0.09330463 -0.16250758
000010 72 a3 18 3e 4b a0 86 3e db 36 a7 bd 60 be 27 3d
       0.149061 0.2629417 -0.0816476 0.04095304
000020 39 2f 2b 3e 96 4b 3d bc
       0.16717233 -0.011553666
